model.pth (torch, 839375 bytes, 8 tensors)

weight f4 [16, 1, 3, 3]
-0.26542807 -0.24910872 -0.18100767 -0.44551665 -0.013090725 -0.08660132 -0.54298973 -0.38701513
-0.24552055 0.24975415 -0.39472178 -0.5061597 0.17029327 -0.2566834 -0.124176346 0.42368424
-0.16979915 -0.009802532 -0.26947647 0.3324317 0.18585813 0.15360317 0.35443515 0.38667288
0.09494088 0.1045245 0.32601586 0.04458269 0.19868255 0.14096452 0.27190194 0.35659575
-0.31514448 -0.14777842 0.1595384 0.09275412 0.1853043 0.28130054 -0.16583212 0.1455758
0.12874705 0.018954085 -0.055036683 -0.11253875 -0.08121428 -0.19848965 0.29013318 -0.25577682
0.123156525 0.27369976 0.24584389 0.2046006 -0.05328957 -0.1318142 0.38655236 0.09051758
0.33589956 0.011333245 0.29129362 0.14874539 0.29479316 -0.120784596 0.35706142 0.5724205
0.2730635 -0.28290322 -0.14644864 -0.056210667 -0.080615856 -0.051263083 -0.4270311 -0.2818389
-0.29910707 -0.083022125 0.29808563 -0.16431071 0.16054003 0.34774172 -0.67383933 -0.0090331035
0.3559711 0.2581013 0.29117793 0.14267471 -0.2778939 -0.23261766 -0.1388355 0.24518439
0.2625076 0.25382084 -0.27238235 0.05878254 -0.30539215 -0.2820562 0.08737768 -0.14691663
0.19468436 0.48453608 0.47976616 0.17969686 -0.12594476 0.13948815 0.38048843 0.27574953
0.3495994 0.31258842 0.29308155 0.10010713 0.27787897 -0.1952628 -0.29448736 -0.38704297
-0.20868482 -0.3961213 -0.30767253 -0.5812663 0.014786397 -0.44036317 0.09698853 -0.23401496
0.06080634 0.2563402 0.52071977 0.27176538 0.38791406 0.14188674 0.30816835 -0.08506001
-0.54372334 0.105323136 0.27403376 0.23295814 0.29716954 -0.22368674 0.078080624 0.29112682
-0.014445857 0.29018396 -0.008406898 0.18391085 -0.0645642 0.2279645 0.30418262 -0.29556623
00000000: 30e6 87be 5b16 7fbe 135a 39be c21a e4be
00000010: 7b7a 56bc 085c b1bd 6001 0bbf d926 c6be
00000020: bd69 7bbe 8dbf 7f3e f918 cabe af93 01bf
00000030: 5c61 2e3e 026c 83be 2b50 febd 24ed d83e
00000040: d4df 2dbe cd9a 20bc d2f8 89be 7d34 aa3e
00000050: 9851 3e3e 264a 1d3e 8678 b53e fdf9 c53e
00000060: 5d70 c23d f110 d63d 8deb a63e 579c 363d
00000070: 7073 4b3e 0159 103e bb36 8b3e b893 b63e
00000080: 9e5a a1be 3a53 17be 095e 233e dff5 bd3d
00000090: 69c0 3d3e a006 903e e5cf 29be d311 153e
000000a0: 44d6 033e 9945 9b3c 256e 61bd b77a e6bd
000000b0: ac53 a6bd df40 4bbe 568c 943e 2ef5 82be
000000c0: 7d39 fc3d 6022 8c3e 80be 7b3e d282 513e
000000d0: 2a46 5abd 4dfa 06be 31ea c53e 4861 b93d
000000e0: 07fb ab3e 13af 393c 7024 953e b650 183e
000000f0: 21ef 963e ea5d f7bd c1d0 b63e 268a 123f
00000100: fbce 8b3e b1d8 90be a2f6 15be 283d 66bd
00000110: ed19 a5bd 3df9 51bd d2a3 dabe 304d 90be
00000120: 9024 99be 8107 aabd ae9e 983e 1141 28be
00000130: 9b64 243e 340b b23e bc80 2cbf 95ff 13bc
00000140: d841 b63e db25 843e 4615 953e 5219 123e
00000150: 1c48 8ebe 5333 6ebe e52a 0ebe 9e11 7b3e
00000160: 6567 863e cef4 813e b375 8bbe f6c5 703d
00000170: 5c5c 9cbe ac69 90be 12f3 b23d 5071 16be
00000180: 565b 473e 1d15 f83e e9a3 f53e 7402 383e
00000190: aaf7 00be fbd5 0e3e 61cf c23e 0b2f 8d3e
000001a0: b1fe b23e 970b a03e c90e 963e f804 cd3d
000001b0: 2746 8e3e f9f2 47be 0cc7 96be 7f2a c6be
000001c0: 79b1 55be 69d0 cabe 4187 9dbe decd 14bf
000001d0: a542 723c 4877 e1be eca1 c63d 9ea1 6fbe
000001e0: 1210 793d 063f 833e e44d 053f d524 8b3e
000001f0: ac9c c63e c24a 113e 3ec8 9d3e f133 aebd
00000200: 7431 0bbf a8b3 d73d 274e 8c3e 948c 6e3e
00000210: 9b26 983e 230e 65be bce8 9f3d 930e 953e
00000220: 51ae 6cbc fe92 943e 16bd 09bc 2053 3c3e
00000230: 3c3a 84bd 876f 693e d3bd 9b3e 7554 97be

bias f4 [16]
0.046783794 0.19890797 -0.32949814 -0.26399416 0.27730963 0.3608392 -0.20913574 0.31531355
-0.03907903 -0.31746373 0.28978828 0.002962353 0.3026914 -0.23441958 -0.068612315 0.25814095
00000000: 5da0 3f3d 88ae 4b3e fbb3 a8be 3e2a 87be
00000010: 87fb 8d3e eabf b83e ae27 56be c770 a13e
00000020: 5511 20bd 9b8a a2be 215f 943e 0924 423b
00000030: 5efa 9a3e b00b 70be 9d84 8cbd 0d2b 843e

weight f4 [32, 16, 3, 3]
0.0044548954 -0.1538462 -0.23930387 0.14366773 0.051743846 -0.09894235 0.04524522 -0.029312426
0.08753484 -0.068541 -0.15621309 0.22952697 0.059990503 0.05974185 -0.23153722 0.105794795
0.058309827 0.0014344803 -0.08586198 -0.17454657 -0.16471936 -0.09571397 -0.0032059131 0.17748456
0.07373851 -0.099788 -0.1038767 -0.045685623 0.16825937 0.076149754 -0.17571507 -0.069960214
0.17612289 0.038760185 0.047879934 0.009012262 0.18984592 0.15634485 0.005561949 -0.019409895
0.010326694 0.10654995 0.0501124 -0.03727741 -0.038914133 0.098909095 0.069373876 -0.09935432
0.054629046 -0.058433406 0.11402317 0.108054265 -0.09836977 -0.044125292 -0.1280299 -0.17593625
-0.09548812 -0.09569784 -0.017946085 0.14983119 0.10465524 -0.083163045 0.069883846 0.22511436
0.1971862 -0.022787035 -0.030020969 0.057656355 -0.08487247 -0.19144328 0.022921888 0.09302767
0.1910687 -0.016011942 -0.019363722 0.095849834 0.037483264 0.12068262 0.08017333 -0.020121539
-0.011100138 0.15193434 0.1555778 0.13543849 -0.008519735 -0.008658517 0.07659384 0.13113207
0.14082442 0.05685569 -0.16209827 0.0036661632 0.14948946 0.11046067 -0.056876197 -0.074408196
0.16958438 -0.15161714 -0.08550251 -0.14901488 -0.14431494 0.022160145 -0.086973146 -0.03664203
0.14672606 -0.0053469692 -0.08383045 -0.052811116 0.06600397 0.070854336 -0.09099895 -0.017076364
0.052415274 -0.11704883 -0.09887802 0.0074976613 0.09881368 -0.13239503 -0.24792264 0.054251194
0.087740175 0.17717819 0.2832584 0.08094248 -0.106876835 -0.28798437 -0.16064602 -0.099126905
-0.049356554 0.21972954 0.055915907 -0.04300998 0.15010214 0.10200099 -0.18294735 0.10961253
0.064873695 0.0338514 0.004833074 -0.010993301 0.101507924 0.043022633 0.080988266 0.057833835
-0.064814694 -0.05904537 0.02870105 -0.1205907 -0.0745511 -0.048683867 -0.024636108 -0.104160294
-0.22245005 -0.018674454 0.08246072 0.078523435 -0.07464752 0.17049503 -0.100323044 0.09195685
0.1032362 0.029631892 0.19772619 -0.19881432 -0.09282771 0.11840604 -0.06412243 -0.00873347
-0.21222396 -0.03964416 0.10151509 0.017956574 0.14549212 -0.1313424 -0.07669776 -0.05632415
0.0032245356 0.18710195 -0.14440714 0.041873958 0.049327057 0.040653 -0.059993364 0.089639835
0.024709975 0.052006934 0.04371004 -0.053758636 0.0052405726 -0.037039995 -0.012665603 -0.069610715
0.020436544 -0.047789343 0.091893815 -0.051594246 -0.14570633 0.044325612 -0.002469922 -0.047057603
-0.19229057 0.03109053 -0.075994596 0.055881504 -0.050848287 -0.121082075 -0.034498487 0.03118024
-0.013923685 -0.096519485 0.17559633 0.18787858 -0.17148466 0.12101448 -0.149263 0.043992564
0.074199855 0.1316214 0.44501427 0.099111736 0.19780166 0.43652734 -0.16626735 0.19603635
0.10711455 0.22194313 0.047865167 0.033447105 -0.19670041 -0.08515609 -0.01684911 -0.0070803035
-0.0068430603 0.013520016 0.12399799 -0.13914582 -0.012154587 -0.034316372 -0.100131 0.20096242
0.09188761 0.14166598 0.13996905 0.052222725 0.065744944 -0.03034978 0.034788482 -0.07486952
0.035189092 -0.066293515 -0.1193745 0.026698092 -0.04216527 -0.022906613 0.036431085 0.059034735
00000000: 5ffa 913b dc89 1dbe 130c 75be a21d 133e
00000010: 5bf1 533d 49a2 cabd 0d53 393d 9d20 f0bc
00000020: 7745 b33d 395f 8cbd 53f6 1fbe 1e09 6b3e
00000030: 9ab8 753d dfb3 743d 1818 6dbe f1aa d83d
00000040: 49d6 6e3d 2c05 bc3a 68d8 afbd 56bc 32be
00000050: 31ac 28be b005 c4bd 4c1a 52bb 83be 353e
00000060: 3704 973d a75d ccbd 4fbd d4bd d920 3bbd
00000070: 2f4c 2c3e 67f4 9b3d a7ee 33be 4d47 8fbd
00000080: 8f59 343e 00c3 1e3d c01d 443d 2ba8 133c
00000090: f866 423e dd18 203e 0341 b63b 8001 9fbc
000000a0: 4b31 293c dc36 da3d a942 4d3d 33b0 18bd
000000b0: 6d64 1fbd da90 ca3d e413 8e3d 477a cbbd
000000c0: b5c2 5f3d de57 6fbd fb84 e93d 8e4b dd3d
000000d0: 1776 c9bd b9bc 34bd 451a 03be a228 34be
000000e0: 478f c3bd 3bfd c3bd ab03 93bc 596d 193e
000000f0: 7d55 d63d 6351 aabd 431f 8f3d 6184 663e
00000100: 2eeb 493e e0ab babc 89ee f5bc 1229 6c3d
00000110: 9ed1 adbd b509 44be afc6 bb3c 4b85 be3d
00000120: 83a7 433e 7a2b 83bc aba0 9ebc eb4c c43d
00000130: 0d88 193d 7328 f73d ea31 a43d edd5 a4bc
00000140: 5add 35bc ad94 1b3e c94f 1f3e 63b0 0a3e
00000150: 5c96 0bbc 74dc 0dbc 3bdd 9c3d 7c47 063e
00000160: 4734 103e 83e1 683d 17fd 25be 0344 703b
00000170: c413 193e 3439 e23d 04f7 68bd 5363 98bd
00000180: 87a7 2d3e 8641 1bbe f11b afbd 5b97 18be
00000190: 4cc7 13be 3189 b53c fa1e b2bd f415 16bd
000001a0: 5b3f 163e a135 afbb 4daf abbd 7850 58bd
000001b0: 172d 873d 141c 913d a85d babd bbe3 8bbc
000001c0: 66b1 563d 4cb7 efbd 8f80 cabd f1ae f53b
000001d0: d45e ca3d 9092 07be 6fdf 7dbe 8036 5e3d
000001e0: 1fb1 b33d 336e 353e 3f07 913e 2cc5 a53d
000001f0: 3ee2 dabd b072 93be 6480 24be 0c03 cbbd
00000200: 192a 4abd c800 613e 1408 653d 3c2b 30bd
00000210: 60b4 193e e5e5 d03d 8d56 3bbe 897c e03d
00000220: 80dc 843d c4a7 0a3d c35e 9e3b 3f1d 34bc
00000230: 63e3 cf3d 8038 303d 2ddd a53d 2ce3 6c3d
00000240: 91bd 84bd 8fd9 71bd 771e eb3c 42f8 f6bd
00000250: 3fae 98bd bc68 47bd aad1 c9bc fe51 d5bd
00000260: f2c9 63be 2bfb 98bc 2ae1 a83d e5d0 a03d
00000270: cde0 98bd 4096 2e3e 2b76 cdbd df53 bc3d
00000280: 806d d33d 95be f23c bc78 4a3e fb95 4bbe
00000290: 741c bebd de7e f23d 9f52 83bd d416 0fbc
000002a0: 3d51 59be ea61 22bd 25e7 cf3d aa19 933c
000002b0: e3fb 143e 9f7e 06be b713 9dbd 27b4 66bd
000002c0: bb52 533b a797 3f3e 77df 13be 0784 2b3d
000002d0: 2b0b 4a3d c383 263d 9abb 75bd 1795 b73d
000002e0: 936c ca3c 3905 553d 4d09 333d 0432 5cbd
000002f0: 1cb9 ab3b 40b7 17bd 6483 4fbc 1090 8ebd
00000300: 8a6a a73c c2be 43bd d332 bc3d 7d54 53bd
00000310: 0a34 15be c68e 353d 6ade 21bb 79bf 40bd
00000320: d2e7 44be 91b1 fe3c 0ea3 9bbd 01e4 643d
00000330: 4b46 50bd e1f9 f7bd 494e 0dbd b46d ff3c
00000340: 2b20 64bc 02ac c5bd 86cf 333e 3e63 403e
00000350: ad99 2fbe 71d6 f73d 66d8 18be 8c31 343d
00000360: 18f6 973d c3c7 063e e9d8 e33e 18fb ca3d
00000370: 858c 4a3e 8380 df3e fd41 2abe c1bd 483e
00000380: e05e db3d 0f45 633e 440e 443d d5ff 083d
00000390: d56b 49be 5166 aebd 2507 8abc e401 e8bb
000003a0: c03b e0bb 0f83 5d3c a8f2 fd3d 3e7c 0ebe
000003b0: 0824 47bc 538f 0cbd 7b11 cdbd 18c9 4d3e
000003c0: 922f bc3d e310 113e 0c54 0f3e 7fe7 553d
000003d0: 49a5 863d 1aa0 f8bc 5e7e 0e3d 3155 99bd
000003e0: 7022 103d e5c4 87bd 9e7a f4bd f5b5 da3c
000003f0: 7db5 2cbd a6a6 bbbc c338 153d 68ce 713d

bias f4 [32]
-0.0047309473 -0.11991593 -0.025634982 0.074780874 -0.08912137 0.015775818 0.054879546 -0.10102153
-0.0015378401 0.022637773 0.012505194 -0.065643154 0.03119816 -0.09155206 0.123309255 0.084501
-0.06765045 -0.006996281 -0.15714504 -0.0759858 -0.019247409 -0.098552324 0.029645972 0.03446623
0.03295474 -0.12365466 -0.04730477 -0.066808276 -0.12969328 -0.12200464 -0.11917907 0.06002404
00000000: 1006 9bbb 7c96 f5bd 7400 d2bc b726 993d
00000010: 4485 b6bd 4a3c 813c 60c9 603d 60e4 cebd
00000020: 5a91 c9ba da72 b93c 96e2 4c3c eb6f 86bd
00000030: 4993 ff3c a57f bbbd 9089 fc3d dc0e ad3d
00000040: 528c 8abd 0f41 e5bb a1ea 20be 719e 9bbd
00000050: beac 9dbc cdd5 c9bd 1cdc f23c 762c 0d3d
00000060: 8dfb 063d a83e fdbd a6c2 41bd c7d2 88bd
00000070: 51ce 04be 92dd f9bd 2814 f4bd c5db 753d

weight f4 [128, 1568]
-0.026750067 -0.0119619295 -0.03423483 -0.027213402 -0.032339364 0.012658278 -0.0129692275 0.0024123709
-0.018550457 -0.019400733 -0.016520953 -0.03208898 -0.019209689 -0.02472604 -0.013627096 -0.009448086
-0.028995544 -0.028038008 0.0026750201 -0.02782671 -0.01800918 -0.010303325 -0.0020709687 -0.0027590543
-0.0052193655 -0.016676456 -0.021537231 -0.005053693 -0.035678547 0.012381015 -0.014120593 -0.030175483
-0.001300916 0.00067096634 -0.034622062 0.0024141157 -0.022520928 0.00937847 0.011717369 -0.008982985
-0.023725161 -0.034705512 -0.018439788 -0.03289859 -0.0054919706 -0.014240064 -0.0014653397 -0.005467522
-0.018382402 -0.022695076 -0.020990405 0.009764695 0.009594873 -0.023180597 -0.03573799 -0.030327197
-0.033794604 -0.030698208 0.008057731 -0.010166465 -0.035672177 -0.006297549 -0.021012774 -0.028844379
-0.0012648972 -0.011887473 0.012273923 -0.014295923 0.0043378808 -0.018161427 -0.022796122 -0.0025179994
0.0068590697 0.0011953869 -0.030851025 -0.031719152 -0.0037376778 -0.022526408 0.009373872 0.013302153
-0.0063369307 -0.034732725 0.0009841219 0.004222849 -0.023951188 -0.031473503 -0.004890088 -0.025395166
-0.030457396 -0.009977999 -0.011983622 0.008868693 -0.0075311586 -0.018966988 -0.02115795 -0.02837341
-0.031178644 -0.0038582694 -0.005536616 -0.0018072625 -0.00526885 -0.0062697353 -0.001974834 -0.00023788089
0.010039822 -0.028722784 -0.007902304 -0.0018358054 -0.010245131 -0.008339815 -0.013253638 0.009726242
-0.012771074 0.005395733 -0.01580439 -0.020646276 -0.020041421 -0.031158205 -0.012174158 -0.027383016
-0.0066941455 -0.018991131 -0.018245926 -0.01294341 -0.011947753 0.0010616226 0.01425576 -0.0064753373
0.01905422 -0.027466422 0.012307922 -0.031850953 -0.03315832 -0.03267393 0.013986433 0.013759024
-0.0033517648 -0.0019161284 -0.00029051385 -0.029334038 0.020462673 0.0117964875 -0.03350738 -0.034896348
-0.017373798 -0.028444687 -0.0084086 -0.015085324 -0.025115136 -0.022398299 0.010557136 -0.020363417
-0.020391937 -0.005003055 -0.007915933 -0.016637037 -0.0343609 -0.03476612 -0.016178733 -0.00397344
0.0010876358 -0.014010497 -0.010357301 0.009283399 0.01011134 -0.028719632 0.007999511 -0.0153218005
-0.030962199 -0.024739185 0.009933212 -0.029327797 -0.010645809 -0.032561764 0.002795454 -0.018000595
-0.030395688 -0.02979481 -0.025704809 -0.008171081 -0.018405804 -0.013584267 -0.012474167 -0.033798736
0.01453096 -0.02669284 -0.03292422 -0.02485837 0.013113259 -0.014995546 -0.0030877837 -0.019311633
0.0008663185 -0.00027216304 -0.019721467 0.012067275 0.014459449 -0.026925482 0.00034917763 0.00402832
-0.020927109 -0.028109184 -0.004302189 -0.0006825734 0.0041954587 -0.010357002 -0.0062813656 0.0046255523
-0.011694749 -0.03529604 -0.010040009 -0.020853123 -0.030922215 -0.011035786 0.0052177147 -0.014974039
-0.021114811 -0.004640176 -0.022157447 0.0010353863 0.00014357576 -0.009435655 -0.009171279 -0.015886158
-0.024621036 0.016189031 -0.005599113 -0.013113288 -0.013083354 -0.017917726 -0.0037876493 -0.0009007653
-0.011227686 -0.023622595 -0.01431242 -0.005187326 0.0062200627 -0.013173043 -0.02383276 0.0005477313
-0.004915258 -0.026166542 -0.0074473033 -0.001557724 0.014833285 -0.028287139 -0.030093078 -0.0052988967
0.01399416 -0.010401799 -0.009161642 0.014381906 0.014408644 -0.033016402 -0.0015741134 -0.03125543
00000000: f522 dbbc f8fb 43bc d239 0cbd a4ee debc
00000010: 4876 04bd ab64 4f3c e27c 54bc de18 1e3b
00000020: 21f7 97bc 49ee 9ebc f356 87bc bc6f 03bd
00000030: a35d 9dbc 448e cabc 2f44 5fbc 25cc 1abc
00000040: 1088 edbc f7af e5bc 644f 2f3b d7f4 e3bc
00000050: fd87 93bc 47cf 28bc 17b9 07bb 40d1 34bb
00000060: 3607 abbb 109d 88bc d96e b0bc 7399 a5bb
00000070: ab23 12bd bed9 4a3c 0f5a 67bc 9332 f7bc
00000080: 7f83 aaba cae3 2f3a ddcf 0dbd 2436 1e3b
00000090: cf7d b8bc 27a8 193c 35fa 3f3c 5f2d 13bc
000000a0: 455b c2bc 5e27 0ebd 0a0f 97bc acc0 06bd
000000b0: fdf5 b3bb 284f 69bc a410 c0ba e628 b3bb
000000c0: b196 96bc 06eb b9bc 12f4 abbc 19fc 1f3c
000000d0: d033 1d3c 3ce5 bdbc 0062 12bd be70 f8bc
000000e0: 366c 0abd cf7a fbbc 9304 043c 3f91 26bc
000000f0: fd1c 12bd ab5b cebb fb22 acbc 0c4b ecbc
00000100: e8ca a5ba adc3 42bc 9018 493c 7239 6abc
00000110: c824 8e3b 46c7 94bc efbe babc 0505 25bb
00000120: 0cc2 e03b 87ae 9c3a 4abb fcbc f1eb 01bd
00000130: d4f3 74bb 4d89 b8bc de94 193c 46f1 593c
00000140: 07a6 cfbb e743 0ebd a7fd 803a d35f 8a3b
00000150: 4835 c4bc 5cea 00bd 083d a0bb 8609 d0bc
00000160: ca81 f9bc c37a 23bc f456 44bc ff4d 113c
00000170: f0c7 f6bb a860 9bbc 7053 adbc 5b6f e8bc
00000180: 5b6a ffbc 05db 7cbb 806c b5bb abe1 ecba
00000190: 51a6 acbb 5a72 cdbb 376c 01bb aa6f 79b9
000001a0: 117e 243c 0b4c ebbc aa78 01bc 689f f0ba
000001b0: 32db 27bc b8a3 08bc c925 59bc d15a 1f3c
000001c0: c43d 51bc b0ce b03b 3578 81bc 6122 a9bc
000001d0: e82d a4bc 7e3f ffbc 1f76 47bc 5952 e0bc
000001e0: 905a dbbb 4a93 9bbc 7b78 95bc 9910 54bc
000001f0: 82c0 43bc 2526 8b3a fe90 693c 112f d4bb
00000200: 9817 9c3c 4301 e1bc 2ba7 493c 2576 02bd
00000210: 05d1 07bd 19d5 05bd 5a27 653c 886d 613c
00000220: 48a9 5bbb 9a26 fbba 1c50 98b9 f04d f0bc
00000230: 56a1 a73c 0e46 413c 093f 09bd 79ef 0ebd
00000240: 7f53 8ebc d504 e9bc 3ac4 09bc 6f28 77bc
00000250: 42be cdbc a37c b7bc d6f7 2c3c 2ed1 a6bc
00000260: fe0c a7bc abf0 a3bb d4b1 01bc 654a 88bc
00000270: 04be 0cbd eb66 0ebd 4389 84bc a133 82bb
00000280: 008f 8e3a 498c 65bc abb1 29bc 6619 183c
00000290: 09aa 253c 6f45 ebbc 6210 033c 4a08 7bbc
000002a0: 70a4 fdbc d5a9 cabc e9be 223c d940 f0bc
000002b0: c26b 2ebc 7c5f 05bd f033 373b fc75 93bc
000002c0: 6100 f9bc 3f14 f4bc e492 d2bc ffdf 05bc
000002d0: c5c7 96bc 8c90 5ebc 7360 4cbc 8b70 0abd
000002e0: 4313 6e3c f1aa dabc 8cdb 06bd c8a3 cbbc
000002f0: ffd8 563c e1af 75bc 6a5c 4abb 6e33 9ebc
00000300: a719 633a 1bb1 8eb9 ea8e a1bc d2b5 453c
00000310: 53e7 6c3c d492 dcbc d411 b739 ffff 833b
00000320: 546f abbc 3b45 e6bc 61f9 8cbb baee 32ba
00000330: 0f7a 893b 6ab0 29bc ead3 cdbb f291 973b
00000340: 559b 3fbc 9592 10bd da7e 24bc 2bd4 aabc
00000350: 9650 fdbc 71cf 34bc 5df9 aa3b ac55 75bc
00000360: f8f8 acbc 9e0c 98bb 8983 b5bc cdb5 873a
00000370: d38c 1639 0198 1abc 2243 16bc b023 82bc
00000380: 0eb2 c9bc dc9e 843c c478 b7bb 1ed9 56bc
00000390: 905b 56bc 32c8 92bc 363a 78bb 5621 6cba
000003a0: 54f4 37bc 2c84 c1bc a47e 6abc 72fa a9bb
000003b0: abd1 cb3b bfd3 57bc ec3c c3bc a095 0f3a
000003c0: 2c10 a1bb 375b d6bc 8208 f4bb 8b2c ccba
000003d0: 4e07 733c 6eba e7bc c285 f6bc 5ea2 adbb
000003e0: c347 653c 4f6c 2abc b61a 16bc 16a2 6b3c
000003f0: 3c12 6c3c 353c 07bd 7b52 ceba b205 00bd

bias f4 [128]
-0.0040896027 -0.0004760751 -0.0018323127 0.0072345636 0.016056174 -0.0014326674 0.023022015 0.009524925
0.013519683 -0.004001202 -0.02092428 -0.02417994 0.06337385 0.0058686514 -0.014418605 -0.017744515
0.032768164 -0.018591112 0.0018770491 0.015104849 0.013348631 0.0018218327 -0.02625982 0.039864533
0.0029834867 0.0048385337 -0.010518115 -0.011612307 -0.004888923 -0.0073232646 -0.012918659 0.025916483
-0.007108298 -0.0077411807 0.013767451 -0.002752527 0.067946106 0.03586115 -0.0056410655 0.010935815
0.008887831 0.002883316 0.001242239 -0.006751738 -0.00994458 0.01174577 -0.0039114044 -0.019354025
-0.03186395 0.0063611194 0.024371708 -0.014381771 -0.00075155427 0.002912102 0.017490992 0.038286872
0.002290479 0.01564813 -0.0016347441 0.012019527 0.01862116 0.03492132 -0.02956345 0.036739565
0.022482026 0.05397547 -0.016080119 0.004372881 0.029000737 -0.002884946 -0.024917137 -0.010240166
-0.030227253 -0.022052959 0.027657026 -0.015764171 -0.017550677 -0.020337103 0.0081680985 0.0036611096
0.01659117 0.0074638813 0.010598908 0.005477205 0.0058133416 -0.00541001 0.038623285 0.0048057064
-0.013034901 0.030654848 0.010549441 0.018826358 -0.002982549 -0.010886602 0.051533192 -0.005743334
0.005530761 -0.015452212 0.017476495 -0.046402816 -0.024238462 -0.017280059 -0.03091749 -0.023694864
-0.026397811 0.0065698246 -0.01953687 0.0021667336 0.013767975 0.02890015 -0.02449646 -0.019869568
0.020664418 0.0048696687 -0.011517843 -0.007220102 -0.019126968 -0.0045778994 -0.0046837647 -0.023303503
0.0009184646 -0.030062212 -0.0037468113 0.0070318845 0.009450589 0.04419872 0.0076652183 -0.015955335
00000000: 1302 86bb b899 f9b9 362a f0ba eb0f ed3b
00000010: 3d88 833c 57c8 bbba aa98 bc3c 6e0e 1c3c
00000020: a981 5d3c 841c 83bb 6569 abbc 0215 c6bc
00000030: 26ca 813d d14d c03b 033c 6cbc f25c 91bc
00000040: e937 063d 634c 98bc 5107 f63a 547a 773c
00000050: 37b4 5a3c 90ca ee3a d61e d7bc fe48 233d
00000060: 9a86 433b 908c 9e3b 2c54 2cbc 8c41 3ebc
00000070: 4233 a0bb fff7 efbb c8a8 53bc ce4e d43c
00000080: baec e8bb bba9 fdbb e090 613c bd63 34bb
00000090: 5427 8b3d 24e3 123d b0d8 b8bb 222c 333c
000000a0: 449e 113c 04f6 3c3b a0d2 a23a af3d ddbb
000000b0: 97ee 22bc 5571 403c 3d2b 80bb 558c 9ebc
000000c0: c683 02bd f070 d03b 2da7 c73c 85a1 6bbc
000000d0: f403 45ba f7d8 3e3b 4549 8f3c b2d2 1c3d
000000e0: dc1b 163b 8230 803c e944 d6ba 8ded 443c
000000f0: 678b 983c a809 0f3d 0c2f f2bc 3a7c 163d
00000100: 3a2c b83c 6215 5d3d 74ba 83bc 624a 8f3b
00000110: f492 ed3c 5d11 3dbb 061f ccbc 5fc6 27bc
00000120: 259f f7bc 68a8 b4bc fd90 e23c dd23 81bc
00000130: 70c6 8fbc ff99 a6bc 7dd3 053c 3aef 6f3b
00000140: 35ea 873c 9393 f43b 0ba7 2d3c 207a b33b
00000150: d87d be3b 7446 b1bb 7333 1e3d 3079 9d3b
00000160: 5690 55bc e01f fb3c 90d7 2c3c bc39 9a3c
00000170: de76 43bb b85d 32bc 7814 533d 9432 bcbb
00000180: 633b b53b 462b 7dbc de2a 8f3c e110 3ebd
00000190: bd8f c6bc e98e 8dbc ad46 fdbc bb1b c2bc
000001a0: 3940 d8bc af47 d73b c90b a0bc c2ff 0d3b
000001b0: 1393 613c 02c0 ec3c cdac c8bc 81c5 a2bc
000001c0: 6d48 a93c be91 9f3b 56b5 3cbc 9b96 ecbb
000001d0: 29b0 9cbc 3402 96bb 447a 99bb fde6 bebc
000001e0: 1ec5 703a 0745 f6bc 108d 75bb b96b e63b
000001f0: a5d6 1a3c b809 353d 832c fb3b c3b4 82bc

weight f4 [24, 128]
-0.013465283 -0.08538946 0.0014626116 -0.010399209 0.121649556 -0.030757036 0.21959487 -0.05085931
-0.04190156 -0.010614045 0.0029486285 -0.06401567 0.18981877 0.00045075853 -0.052844156 -0.05695208
0.23864338 -0.05357678 -0.027977657 -0.14647289 -0.012610311 -0.0006002222 -0.13450886 0.19711815
-0.044046964 0.08123308 -0.018825738 0.043069545 -0.058179643 0.024301179 -0.018710852 0.15284349
0.022672888 -0.0103742955 -0.037768725 0.031355485 0.2538984 0.13315201 0.046789143 0.13690156
0.013993399 0.061882924 0.03937817 -0.054037113 -0.040706147 -0.04012927 -0.008733747 -0.010713163
-0.080835864 0.17948073 0.0031590401 -0.027632117 0.06755562 -0.0023864093 -0.075698726 0.15789583
0.08040938 0.08654557 -0.06151072 -0.013564069 -0.11224775 0.09479181 0.0046049897 0.14040391
0.20016271 0.21266502 -0.079515174 0.08036891 0.115936674 -0.0077568963 -0.055057462 -0.03480616
0.022343138 -0.060367927 -0.11022708 0.00643031 0.08799753 -0.018744644 -0.042404436 -0.011809067
0.13873342 -0.07895173 -0.051721044 -0.015593704 -0.07165696 -0.019524805 0.24372141 -0.0017576229
-0.045937322 0.14119503 0.011704941 -0.067613356 -0.08559666 -0.037985798 0.37629187 -0.018590149
-0.0111103 -0.037237063 0.38847402 0.026567258 -0.0528162 -0.0075613162 -0.041162066 -0.022851612
0.0025650386 -0.0764192 -0.041757792 -0.016231189 -0.007970716 0.2558899 0.01563552 -0.03715589
0.05752167 -0.031680778 0.006355979 -0.072134756 -0.04829778 -0.0072530867 -0.018635994 -0.063592285
-0.018028583 -0.023472972 -0.016479235 -0.03253626 -0.017166 0.308317 -0.059457466 -0.0370535
-0.032988656 -0.07788731 0.061427776 0.07610165 -0.02452195 0.12565947 -0.16934694 0.13135844
0.123619124 0.02399555 -0.06929417 0.08330278 -0.118457735 0.003854625 -0.04035163 -0.016808378
-0.20238915 0.048946034 0.055643857 0.18048406 0.07238341 -0.04221318 0.17772289 -0.18664297
0.073963754 -0.07317118 0.11966367 0.06549816 0.07712814 0.0532697 -0.020904602 -0.123031914
0.0065463977 0.048122406 -0.0150689 0.07073749 -0.27658653 -0.09390584 0.09413373 -0.09176113
0.022592494 0.12351389 0.06692116 -0.044732574 0.024693891 0.042536795 0.07153247 0.06801829
0.09525066 -0.15808187 0.10636175 0.0502613 0.08163698 -0.048053045 -0.046820626 -0.048637316
-0.023801396 0.08009362 0.059708513 -0.05895625 0.124393485 0.06380809 0.0430029 -0.10805761
-0.16930105 -0.21833092 -0.00076599594 0.0431194 -0.066344365 -0.06556249 -0.06908848 -0.020164767
0.034028012 -0.07766739 0.15162262 0.05448105 -0.068091504 0.10424147 0.1057344 -0.06341105
-0.017563704 -0.004768607 0.024460066 0.0692141 -0.09170083 -0.027101628 -0.19803748 -0.033891473
-0.050449 -0.064587854 -0.06193566 -0.00026108263 -0.07281919 -0.06001107 -0.3783825 0.106686465
-0.03188274 0.023824936 -0.2862239 -0.06949003 0.07043452 0.04915015 0.06402635 0.06712112
-0.00016194598 -0.08422351 -0.029494017 -0.009746139 0.13969071 -0.2310291 -0.039913487 0.10512724
-0.06645698 -0.05660241 -0.026842417 0.09106613 -0.06921547 0.13238922 -0.014101392 0.07025724
-0.06082447 0.01814995 -0.07349851 -0.027689734 0.0012990229 -0.284295 -0.029086445 0.118134014
00000000: 7e9d 5cbc abe0 aebd 1ab5 bf3a 7261 2abc
00000010: 6723 f93d 2ef6 fbbc 7add 603e da51 50bd
00000020: f8a0 2bbd 88e6 2dbc c73d 413b a61a 83bd
00000030: da5f 423e c953 ec39 1d73 58bd 9646 69bd
00000040: ee5e 743e 5373 5bbd 6631 e5bc fdfc 15be
00000050: 7a9b 4ebc 3b58 1dba b1bc 09be 57d9 493e
00000060: 976a 34bd 875d a63d 6f38 9abc b169 303d
00000070: c74d 6ebd 4413 c73c 8047 99bc 0183 1c3e
00000080: 7ebc b93c f3f8 29bc 61b3 1abd 9c6e 003d
00000090: f9fe 813e 0059 083e f9a5 3f3d ec2f 0c3e
000000a0: 9244 653c f378 7d3d 014b 213d 0556 5dbd
000000b0: 7dbb 26bd 975e 24bd fd17 0fbc 4386 2fbc
000000c0: 468d a5bd ccc9 373e e607 4f3b c05c e2bc
000000d0: 9a5a 8a3d 4e65 1cbb ef07 9bbd 72af 213e
000000e0: acad a43d ce3e b13d aaf2 7bbd d43b 5ebc
000000f0: 26e2 e5bd 3522 c23d 74e5 963b 0bc6 0f3e
00000100: 74f7 4c3e dcc4 593e dad8 a2bd 7598 a43d
00000110: 3570 ed3d 902d febb ef83 61bd e790 0ebd
00000120: f508 b73c 5c44 77bd bcbe e1bd 5ab5 d23b
00000130: 0d38 b43d 5e8e 99bc 46b0 2dbd d17a 41bc
00000140: 2210 0e3e 72b1 a1bd 72d9 53bd bc7c 7fbc
00000150: e2c0 92bd 7cf2 9fbc 1b92 793e 0a60 e6ba
00000160: c628 3cbd 6e95 103e 15c6 3f3c df78 8abd
00000170: 4d4d afbd ff96 1bbd 54a9 c03e 5e4a 98bc
00000180: fa07 36bc e485 18bd 11e6 c63e 94a3 d93c
00000190: cd55 58bd ebc4 f7bb 8e99 28bd 4e33 bbbc
000001a0: 351a 283b ab81 9cbd 380a 2bbd 45f7 84bc
000001b0: 9b97 02bc 0004 833e 1016 803c c630 18bd
000001c0: d89b 6b3d b4c3 01bd d145 d03b 63bb 93bd
000001d0: e5d3 45bd 4dab edbb 83aa 98bc ac3c 82bd
000001e0: aeb0 93bc 644a c0bc 76ff 86bc be44 05bd
000001f0: b69f 8cbc badb 9d3e ac89 73bd 69c5 17bd
00000200: 1d1f 07bd 6283 9fbd b19b 7b3d 2fdb 9b3d
00000210: 42e2 c8bc e0ac 003e 4969 2dbe d482 063e
00000220: 062c fd3d 5192 c43c 1aea 8dbd a69a aa3d
00000230: f899 f2bd e09d 7c3b c047 25bd b9b1 89bc
00000240: 1a3f 4fbe a37b 483d d0ea 633d d0d0 383e
00000250: c13d 943d bae7 2cbd fdfc 353e 561f 3fbe
00000260: 4f7a 973d c6da 95bd 3a12 f53d e623 863d
00000270: 5cf5 9d3d 5431 5a3d 2140 abbc 28f8 fbbd
00000280: 2a83 d63b 001c 453d 8ce3 76bc d1de 903d
00000290: c09c 8dbe b451 c0bd 2fc9 c03d 42ed bbbd
000002a0: e513 b93c daf4 fc3d f60d 893d 8139 37bd
000002b0: d84a ca3c 103b 2e3d 9e7f 923d 2c4d 8b3d
000002c0: c712 c33d 37e0 21be 30d4 d93d cbde 4d3d
000002d0: 4a31 a73d 45d3 44bd fcc6 3fbd ec37 47bd
000002e0: 25fb c2bc 2008 a43d ea90 743d 1c7c 71bd
000002f0: 03c2 fe3d d1ad 823d cf23 303d 4f4d ddbd
00000300: 415d 2dbe 2492 5fbe 1ecd 48ba f89d 303d
00000310: 8edf 87bd a045 86bd 437e 8dbd 9530 a5bc
00000320: f560 0b3d 1510 9fbd f642 1b3e 8627 5f3d
00000330: 8f73 8bbd 8d7c d53d 478b d83d a7dd 81bd
00000340: c2e1 8fbc fa41 9cbb 7a60 c83c 1fc0 8d3d
00000350: a5cd bbbd 3c04 debc 56ca 4abe c9d1 0abd
00000360: 9ca3 4ebd a346 84bd 3fb0 7dbd ebe1 88b9
00000370: 3a22 95bd 2bce 75bd 5abb c1be 6f7e da3d
00000380: 7a97 02bd 832c c33c f08b 92be ca50 8ebd
00000390: f93f 903d ab51 493d 3f20 833d cc76 893d
000003a0: 0bd0 29b9 607d acbd 709d f1bc 45ae 1fbc
000003b0: 150b 0f3e e492 6cbe 537c 23bd f34c d73d
000003c0: 991a 88bd eed7 67bd a1e4 dbbc e180 ba3d
000003d0: d7c0 8dbd 0a91 073e 8609 67bc 07e3 8f3d
000003e0: 1423 79bd 34af 943c 6386 96bd 95d5 e2bc
000003f0: fa43 aa3a 1d8f 91be b246 eebc 3ff0 f13d

bias f4 [24]
0.039879143 0.06355748 0.010783961 -0.036731478 -0.06085581 -0.04910904 0.003966909 -0.034657553
-0.024833072 -0.05120834 -0.002888661 0.053799663 0.028350962 -0.078911655 0.050224844 -0.059894145
0.020434715 0.014016032 -0.008583817 0.027830597 -0.10374887 -0.067438506 -0.11171856 -0.046258274
00000000: 5058 233d 6d2a 823d 36af 303c bf73 16bd
00000010: f143 79bd 9026 49bd d8fc 813b 14f5 0dbd
00000020: ba6e cbbc d6bf 51bd b14f 3dbb 095d 5c3d
00000030: 4740 e83c 6f9c a1bd 91b8 4d3d 9053 75bd
00000040: b466 a73c 80a3 653c 23a3 0cbc fefc e33c
00000050: 4a7a d4bd 331d 8abd b3cc e4bd 5179 3dbd
